…
I0407 21:13:14.894553  5433 net.cpp:257] The NetState phase (0) differed from the phase (1) specified by a rule in layer accuracy
I0407 21:13:14.894681  5433 net.cpp:42] Initializing net from parameters: 
name: "TrainValNet"
state {
  phase: TRAIN
}
layer {
  name: "data"
  type: "Data"
  top: "data"
  top: "label"
  include {
    phase: TRAIN
  }
  transform_param {
    mirror: false
    mean_value: 128
    mean_value: 128
    mean_value: 128
  }
  data_param {
    source: "/home/wyang/Data/Code/pose/chen_nips14_full/cache/lsp-03-06/LMDB_train"
    batch_size: 2
    backend: LMDB
  }
}
layer {
  name: "conv1"
  type: "Convolution"
  bottom: "data"
  top: "conv1"
  param {
    lr_mult: 1
    decay_mult: 1
  }
  param {
    lr_mult: 2
    decay_mult: 0
  }
  convolution_param {
    num_output: 48
    pad: 2
    kernel_size: 5
    stride: 1
    weight_filler {
      type: "gaussian"
      std: 0.01
    }
    bias_filler {
      type: "constant"
      value: 0
    }
  }
}
layer {
  name: "relu1"
  type: "ReLU"
  bottom: "conv1"
  top: "conv1"
}
layer {
  name: "pool1"
  type: "Pooling"
  bottom: "conv1"
  top: "pool1"
  pooling_param {
    pool: MAX
    kernel_size: 3
    stride: 2
  }
}
layer {
  name: "norm1"
  type: "LRN"
  bottom: "pool1"
  top: "norm1"
  lrn_param {
    local_size: 5
    alpha: 0.0001
    beta: 0.75
  }
}
layer {
  name: "conv2"
  type: "Convolution"
  bottom: "norm1"
  top: "conv2"
  param {
    lr_mult: 1
    decay_mult: 1
  }
  param {
    lr_mult: 2
    decay_mult: 0
  }
  convolution_param {
    num_output: 128
    pad: 1
    kernel_size: 3
    stride: 1
    weight_filler {
      type: "gaussian"
      std: 0.01
    }
    bias_filler {
      type: "constant"
      value: 1
    }
  }
}
layer {
  name: "relu2"
  type: "ReLU"
  bottom: "conv2"
  top: "conv2"
}
layer {
  name: "pool2"
  type: "Pooling"
  bottom: "conv2"
  top: "pool2"
  pooling_param {
    pool: MAX
    kernel_size: 3
    stride: 2
  }
}
layer {
  name: "norm2"
  type: "LRN"
  bottom: "pool2"
  top: "norm2"
  lrn_param {
    local_size: 5
    alpha: 0.0001
    beta: 0.75
  }
}
layer {
  name: "conv3"
  type: "Convolution"
  bottom: "norm2"
  top: "conv3"
  param {
    lr_mult: 1
    decay_mult: 1
  }
  param {
    lr_mult: 2
    decay_mult: 0
  }
  convolution_param {
    num_output: 128
    pad: 1
    kernel_size: 3
    stride: 1
    weight_filler {
      type: "gaussian"
      std: 0.01
    }
    bias_filler {
      type: "constant"
      value: 1
    }
  }
}
layer {
  name: "relu3"
  type: "ReLU"
  bottom: "conv3"
  top: "conv3"
}
layer {
  name: "conv4"
  type: "Convolution"
  bottom: "conv3"
  top: "conv4"
  param {
    lr_mult: 1
    decay_mult: 1
  }
  param {
    lr_mult: 2
    decay_mult: 0
  }
  convolution_param {
    num_output: 128
    pad: 1
    kernel_size: 3
    stride: 1
    weight_filler {
      type: "gaussian"
      std: 0.01
    }
    bias_filler {
      type: "constant"
      value: 1
    }
  }
}
layer {
  name: "relu4"
  type: "ReLU"
  bottom: "conv4"
  top: "conv4"
}
layer {
  name: "conv5"
  type: "Convolution"
  bottom: "conv4"
  top: "conv5"
  param {
    lr_mult: 1
    decay_mult: 1
  }
  param {
    lr_mult: 2
    decay_mult: 0
  }
  convolution_param {
    num_output: 128
    pad: 1
    kernel_size: 3
    stride: 1
    weight_filler {
      type: "gaussian"
      std: 0.01
    }
    bias_filler {
      type: "constant"
      value: 1
    }
  }
}
layer {
  name: "relu5"
  type: "ReLU"
  bottom: "conv5"
  top: "conv5"
}
layer {
  name: "fc6-conv"
  type: "Convolution"
  bottom: "conv5"
  top: "fc6-conv"
  param {
    lr_mult: 1
    decay_mult: 1
  }
  param {
    lr_mult: 2
    decay_mult: 0
  }
  convolution_param {
    num_output: 4096
    pad: 0
    kernel_size: 9
    stride: 1
  }
}
layer {
  name: "relu6"
  type: "ReLU"
  bottom: "fc6-conv"
  top: "fc6-conv"
}
layer {
  name: "drop6"
  type: "Dropout"
  bottom: "fc6-conv"
  top: "fc6-conv"
  dropout_param {
    dropout_ratio: 0.5
  }
}
layer {
  name: "fc7-conv"
  type: "Convolution"
  bottom: "fc6-conv"
  top: "fc7-conv"
  param {
    lr_mult: 1
    decay_mult: 1
  }
  param {
    lr_mult: 2
    decay_mult: 0
  }
  convolution_param {
    num_output: 4096
    pad: 0
    kernel_size: 1
    stride: 1
  }
}
layer {
  name: "relu7"
  type: "ReLU"
  bottom: "fc7-conv"
  top: "fc7-conv"
}
layer {
  name: "drop7"
  type: "Dropout"
  bottom: "fc7-conv"
  top: "fc7-conv"
  dropout_param {
    dropout_ratio: 0.5
  }
}
layer {
  name: "fc8-conv"
  type: "Convolution"
  bottom: "fc7-conv"
  top: "fc8-conv"
  param {
    lr_mult: 1
    decay_mult: 1
  }
  param {
    lr_mult: 2
    decay_mult: 0
  }
  convolution_param {
    num_output: 9699
    pad: 0
    kernel_size: 1
    stride: 1
  }
}
layer {
  name: "fc9"
  type: "Sum"
  bottom: "fc8-conv"
  top: "fc9"
  include {
    phase: TRAIN
  }
  sum_param {
    source: "/home/wyang/Data/Code/iccv/chen-nips14-pose-dev/global_ids.txt"
  }
}
layer {
  name: "loss"
  type: "SoftmaxWithLoss"
  bottom: "fc8-conv"
  bottom: "label"
  top: "loss"
}
I0407 21:13:14.894865  5433 layer_factory.hpp:74] Creating layer data
I0407 21:13:14.894881  5433 net.cpp:84] Creating Layer data
I0407 21:13:14.894889  5433 net.cpp:338] data -> data
I0407 21:13:14.894912  5433 net.cpp:338] data -> label
I0407 21:13:14.894920  5433 net.cpp:113] Setting up data
I0407 21:13:14.894987  5433 db.cpp:34] Opened lmdb /home/wyang/Data/Code/pose/chen_nips14_full/cache/lsp-03-06/LMDB_train
I0407 21:13:14.895028  5433 data_layer.cpp:67] output data size: 2,3,36,36
I0407 21:13:14.895109  5433 net.cpp:120] Top shape: 2 3 36 36 (7776)
I0407 21:13:14.895117  5433 net.cpp:120] Top shape: 2 (2)
I0407 21:13:14.895123  5433 layer_factory.hpp:74] Creating layer conv1
I0407 21:13:14.895131  5433 net.cpp:84] Creating Layer conv1
I0407 21:13:14.895135  5433 net.cpp:380] conv1 <- data
I0407 21:13:14.895169  5433 net.cpp:338] conv1 -> conv1
I0407 21:13:14.895179  5433 net.cpp:113] Setting up conv1
I0407 21:13:14.895619  5433 net.cpp:120] Top shape: 2 48 36 36 (124416)
I0407 21:13:14.895630  5433 layer_factory.hpp:74] Creating layer relu1
I0407 21:13:14.895637  5433 net.cpp:84] Creating Layer relu1
I0407 21:13:14.895650  5433 net.cpp:380] relu1 <- conv1
I0407 21:13:14.895655  5433 net.cpp:327] relu1 -> conv1 (in-place)
I0407 21:13:14.895660  5433 net.cpp:113] Setting up relu1
I0407 21:13:14.895666  5433 net.cpp:120] Top shape: 2 48 36 36 (124416)
I0407 21:13:14.895669  5433 layer_factory.hpp:74] Creating layer pool1
I0407 21:13:14.895674  5433 net.cpp:84] Creating Layer pool1
I0407 21:13:14.895678  5433 net.cpp:380] pool1 <- conv1
I0407 21:13:14.895681  5433 net.cpp:338] pool1 -> pool1
I0407 21:13:14.895687  5433 net.cpp:113] Setting up pool1
I0407 21:13:14.895719  5433 net.cpp:120] Top shape: 2 48 18 18 (31104)
I0407 21:13:14.895721  5433 layer_factory.hpp:74] Creating layer norm1
I0407 21:13:14.895727  5433 net.cpp:84] Creating Layer norm1
I0407 21:13:14.895731  5433 net.cpp:380] norm1 <- pool1
I0407 21:13:14.895736  5433 net.cpp:338] norm1 -> norm1
I0407 21:13:14.895742  5433 net.cpp:113] Setting up norm1
I0407 21:13:14.895750  5433 net.cpp:120] Top shape: 2 48 18 18 (31104)
I0407 21:13:14.895753  5433 layer_factory.hpp:74] Creating layer conv2
I0407 21:13:14.895758  5433 net.cpp:84] Creating Layer conv2
I0407 21:13:14.895761  5433 net.cpp:380] conv2 <- norm1
I0407 21:13:14.895766  5433 net.cpp:338] conv2 -> conv2
I0407 21:13:14.895771  5433 net.cpp:113] Setting up conv2
I0407 21:13:14.897536  5433 net.cpp:120] Top shape: 2 128 18 18 (82944)
I0407 21:13:14.897579  5433 layer_factory.hpp:74] Creating layer relu2
I0407 21:13:14.897589  5433 net.cpp:84] Creating Layer relu2
I0407 21:13:14.897595  5433 net.cpp:380] relu2 <- conv2
I0407 21:13:14.897604  5433 net.cpp:327] relu2 -> conv2 (in-place)
I0407 21:13:14.897626  5433 net.cpp:113] Setting up relu2
I0407 21:13:14.897639  5433 net.cpp:120] Top shape: 2 128 18 18 (82944)
I0407 21:13:14.897644  5433 layer_factory.hpp:74] Creating layer pool2
I0407 21:13:14.897650  5433 net.cpp:84] Creating Layer pool2
I0407 21:13:14.897655  5433 net.cpp:380] pool2 <- conv2
I0407 21:13:14.897663  5433 net.cpp:338] pool2 -> pool2
I0407 21:13:14.897676  5433 net.cpp:113] Setting up pool2
I0407 21:13:14.897685  5433 net.cpp:120] Top shape: 2 128 9 9 (20736)
I0407 21:13:14.897689  5433 layer_factory.hpp:74] Creating layer norm2
I0407 21:13:14.897697  5433 net.cpp:84] Creating Layer norm2
I0407 21:13:14.897701  5433 net.cpp:380] norm2 <- pool2
I0407 21:13:14.897706  5433 net.cpp:338] norm2 -> norm2
I0407 21:13:14.897711  5433 net.cpp:113] Setting up norm2
I0407 21:13:14.897716  5433 net.cpp:120] Top shape: 2 128 9 9 (20736)
I0407 21:13:14.897718  5433 layer_factory.hpp:74] Creating layer conv3
I0407 21:13:14.897725  5433 net.cpp:84] Creating Layer conv3
I0407 21:13:14.897728  5433 net.cpp:380] conv3 <- norm2
I0407 21:13:14.897733  5433 net.cpp:338] conv3 -> conv3
I0407 21:13:14.897740  5433 net.cpp:113] Setting up conv3
I0407 21:13:14.902506  5433 net.cpp:120] Top shape: 2 128 9 9 (20736)
I0407 21:13:14.902544  5433 layer_factory.hpp:74] Creating layer relu3
I0407 21:13:14.902552  5433 net.cpp:84] Creating Layer relu3
I0407 21:13:14.902556  5433 net.cpp:380] relu3 <- conv3
I0407 21:13:14.902564  5433 net.cpp:327] relu3 -> conv3 (in-place)
I0407 21:13:14.902568  5433 net.cpp:113] Setting up relu3
I0407 21:13:14.902573  5433 net.cpp:120] Top shape: 2 128 9 9 (20736)
I0407 21:13:14.902576  5433 layer_factory.hpp:74] Creating layer conv4
I0407 21:13:14.902582  5433 net.cpp:84] Creating Layer conv4
I0407 21:13:14.902595  5433 net.cpp:380] conv4 <- conv3
I0407 21:13:14.902601  5433 net.cpp:338] conv4 -> conv4
I0407 21:13:14.902606  5433 net.cpp:113] Setting up conv4
I0407 21:13:14.907156  5433 net.cpp:120] Top shape: 2 128 9 9 (20736)
I0407 21:13:14.907196  5433 layer_factory.hpp:74] Creating layer relu4
I0407 21:13:14.907205  5433 net.cpp:84] Creating Layer relu4
I0407 21:13:14.907208  5433 net.cpp:380] relu4 <- conv4
I0407 21:13:14.907214  5433 net.cpp:327] relu4 -> conv4 (in-place)
I0407 21:13:14.907219  5433 net.cpp:113] Setting up relu4
I0407 21:13:14.907223  5433 net.cpp:120] Top shape: 2 128 9 9 (20736)
I0407 21:13:14.907227  5433 layer_factory.hpp:74] Creating layer conv5
I0407 21:13:14.907244  5433 net.cpp:84] Creating Layer conv5
I0407 21:13:14.907248  5433 net.cpp:380] conv5 <- conv4
I0407 21:13:14.907253  5433 net.cpp:338] conv5 -> conv5
I0407 21:13:14.907258  5433 net.cpp:113] Setting up conv5
I0407 21:13:14.912434  5433 net.cpp:120] Top shape: 2 128 9 9 (20736)
I0407 21:13:14.912473  5433 layer_factory.hpp:74] Creating layer relu5
I0407 21:13:14.912482  5433 net.cpp:84] Creating Layer relu5
I0407 21:13:14.912487  5433 net.cpp:380] relu5 <- conv5
I0407 21:13:14.912492  5433 net.cpp:327] relu5 -> conv5 (in-place)
I0407 21:13:14.912497  5433 net.cpp:113] Setting up relu5
I0407 21:13:14.912502  5433 net.cpp:120] Top shape: 2 128 9 9 (20736)
I0407 21:13:14.912504  5433 layer_factory.hpp:74] Creating layer fc6-conv
I0407 21:13:14.912510  5433 net.cpp:84] Creating Layer fc6-conv
I0407 21:13:14.912523  5433 net.cpp:380] fc6-conv <- conv5
I0407 21:13:14.912529  5433 net.cpp:338] fc6-conv -> fc6-conv
I0407 21:13:14.912535  5433 net.cpp:113] Setting up fc6-conv
I0407 21:13:14.958617  5433 net.cpp:120] Top shape: 2 4096 1 1 (8192)
I0407 21:13:14.958654  5433 layer_factory.hpp:74] Creating layer relu6
I0407 21:13:14.958665  5433 net.cpp:84] Creating Layer relu6
I0407 21:13:14.958670  5433 net.cpp:380] relu6 <- fc6-conv
I0407 21:13:14.958675  5433 net.cpp:327] relu6 -> fc6-conv (in-place)
I0407 21:13:14.958683  5433 net.cpp:113] Setting up relu6
I0407 21:13:14.958711  5433 net.cpp:120] Top shape: 2 4096 1 1 (8192)
I0407 21:13:14.958715  5433 layer_factory.hpp:74] Creating layer drop6
I0407 21:13:14.958725  5433 net.cpp:84] Creating Layer drop6
I0407 21:13:14.958729  5433 net.cpp:380] drop6 <- fc6-conv
I0407 21:13:14.958734  5433 net.cpp:327] drop6 -> fc6-conv (in-place)
I0407 21:13:14.958740  5433 net.cpp:113] Setting up drop6
I0407 21:13:14.958748  5433 net.cpp:120] Top shape: 2 4096 1 1 (8192)
I0407 21:13:14.958758  5433 layer_factory.hpp:74] Creating layer fc7-conv
I0407 21:13:14.958765  5433 net.cpp:84] Creating Layer fc7-conv
I0407 21:13:14.958767  5433 net.cpp:380] fc7-conv <- fc6-conv
I0407 21:13:14.958773  5433 net.cpp:338] fc7-conv -> fc7-conv
I0407 21:13:14.958780  5433 net.cpp:113] Setting up fc7-conv
I0407 21:13:14.971889  5433 net.cpp:120] Top shape: 2 4096 1 1 (8192)
I0407 21:13:14.971925  5433 layer_factory.hpp:74] Creating layer relu7
I0407 21:13:14.971935  5433 net.cpp:84] Creating Layer relu7
I0407 21:13:14.971938  5433 net.cpp:380] relu7 <- fc7-conv
I0407 21:13:14.971946  5433 net.cpp:327] relu7 -> fc7-conv (in-place)
I0407 21:13:14.971952  5433 net.cpp:113] Setting up relu7
I0407 21:13:14.971957  5433 net.cpp:120] Top shape: 2 4096 1 1 (8192)
I0407 21:13:14.971971  5433 layer_factory.hpp:74] Creating layer drop7
I0407 21:13:14.971977  5433 net.cpp:84] Creating Layer drop7
I0407 21:13:14.971981  5433 net.cpp:380] drop7 <- fc7-conv
I0407 21:13:14.971984  5433 net.cpp:327] drop7 -> fc7-conv (in-place)
I0407 21:13:14.971994  5433 net.cpp:113] Setting up drop7
I0407 21:13:14.972004  5433 net.cpp:120] Top shape: 2 4096 1 1 (8192)
I0407 21:13:14.972010  5433 layer_factory.hpp:74] Creating layer fc8-conv
I0407 21:13:14.972019  5433 net.cpp:84] Creating Layer fc8-conv
I0407 21:13:14.972025  5433 net.cpp:380] fc8-conv <- fc7-conv
I0407 21:13:14.972033  5433 net.cpp:338] fc8-conv -> fc8-conv
I0407 21:13:14.972043  5433 net.cpp:113] Setting up fc8-conv
I0407 21:13:15.002516  5433 net.cpp:120] Top shape: 2 9699 1 1 (19398)
I0407 21:13:15.002547  5433 layer_factory.hpp:74] Creating layer fc8-conv_fc8-conv_0_split
I0407 21:13:15.002562  5433 net.cpp:84] Creating Layer fc8-conv_fc8-conv_0_split
I0407 21:13:15.002568  5433 net.cpp:380] fc8-conv_fc8-conv_0_split <- fc8-conv
I0407 21:13:15.002576  5433 net.cpp:338] fc8-conv_fc8-conv_0_split -> fc8-conv_fc8-conv_0_split_0
I0407 21:13:15.002586  5433 net.cpp:338] fc8-conv_fc8-conv_0_split -> fc8-conv_fc8-conv_0_split_1
I0407 21:13:15.002604  5433 net.cpp:113] Setting up fc8-conv_fc8-conv_0_split
I0407 21:13:15.002625  5433 net.cpp:120] Top shape: 2 9699 1 1 (19398)
I0407 21:13:15.002632  5433 net.cpp:120] Top shape: 2 9699 1 1 (19398)
I0407 21:13:15.002638  5433 layer_factory.hpp:74] Creating layer fc9
I0407 21:13:15.002652  5433 net.cpp:84] Creating Layer fc9
I0407 21:13:15.002660  5433 net.cpp:380] fc9 <- fc8-conv_fc8-conv_0_split_0
I0407 21:13:15.002670  5433 net.cpp:338] fc9 -> fc9
I0407 21:13:15.002703  5433 net.cpp:113] Setting up fc9
I0407 21:13:15.002714  5433 sum_layer.cpp:12] !!!!!!
I0407 21:13:15.002720  5433 sum_layer.cpp:16] /home/wyang/Data/Code/iccv/chen-nips14-pose-dev/global_ids.txt
I0407 21:13:15.003342  5433 net.cpp:120] Top shape: 2 26 1 1 (52)
I0407 21:13:15.003350  5433 layer_factory.hpp:74] Creating layer loss
I0407 21:13:15.003381  5433 net.cpp:84] Creating Layer loss
I0407 21:13:15.003397  5433 net.cpp:380] loss <- fc8-conv_fc8-conv_0_split_1
I0407 21:13:15.003415  5433 net.cpp:380] loss <- label
I0407 21:13:15.003423  5433 net.cpp:338] loss -> loss
I0407 21:13:15.003433  5433 net.cpp:113] Setting up loss
I0407 21:13:15.003445  5433 layer_factory.hpp:74] Creating layer loss
…
I0407 21:13:15.004354  5433 net.cpp:257] The NetState phase (1) differed from the phase (0) specified by a rule in layer fc9
I0407 21:13:15.004472  5433 net.cpp:42] Initializing net from parameters: 
name: "TrainValNet"
state {
  phase: TEST
}
layer {
  name: "data"
  type: "Data"
  top: "data"
  top: "label"
  include {
    phase: TEST
  }
  transform_param {
    mirror: false
    mean_value: 128
    mean_value: 128
    mean_value: 128
  }
  data_param {
    source: "/home/wyang/Data/Code/pose/chen_nips14_full/cache/lsp-03-06/LMDB_val"
    batch_size: 260
    backend: LMDB
  }
}
layer {
  name: "conv1"
  type: "Convolution"
  bottom: "data"
  top: "conv1"
  param {
    lr_mult: 1
    decay_mult: 1
  }
  param {
    lr_mult: 2
    decay_mult: 0
  }
  convolution_param {
    num_output: 48
    pad: 2
    kernel_size: 5
    stride: 1
    weight_filler {
      type: "gaussian"
      std: 0.01
    }
    bias_filler {
      type: "constant"
      value: 0
    }
  }
}
layer {
  name: "relu1"
  type: "ReLU"
  bottom: "conv1"
  top: "conv1"
}
layer {
  name: "pool1"
  type: "Pooling"
  bottom: "conv1"
  top: "pool1"
  pooling_param {
    pool: MAX
    kernel_size: 3
    stride: 2
  }
}
layer {
  name: "norm1"
  type: "LRN"
  bottom: "pool1"
  top: "norm1"
  lrn_param {
    local_size: 5
    alpha: 0.0001
    beta: 0.75
  }
}
layer {
  name: "conv2"
  type: "Convolution"
  bottom: "norm1"
  top: "conv2"
  param {
    lr_mult: 1
    decay_mult: 1
  }
  param {
    lr_mult: 2
    decay_mult: 0
  }
  convolution_param {
    num_output: 128
    pad: 1
    kernel_size: 3
    stride: 1
    weight_filler {
      type: "gaussian"
      std: 0.01
    }
    bias_filler {
      type: "constant"
      value: 1
    }
  }
}
layer {
  name: "relu2"
  type: "ReLU"
  bottom: "conv2"
  top: "conv2"
}
layer {
  name: "pool2"
  type: "Pooling"
  bottom: "conv2"
  top: "pool2"
  pooling_param {
    pool: MAX
    kernel_size: 3
    stride: 2
  }
}
layer {
  name: "norm2"
  type: "LRN"
  bottom: "pool2"
  top: "norm2"
  lrn_param {
    local_size: 5
    alpha: 0.0001
    beta: 0.75
  }
}
layer {
  name: "conv3"
  type: "Convolution"
  bottom: "norm2"
  top: "conv3"
  param {
    lr_mult: 1
    decay_mult: 1
  }
  param {
    lr_mult: 2
    decay_mult: 0
  }
  convolution_param {
    num_output: 128
    pad: 1
    kernel_size: 3
    stride: 1
    weight_filler {
      type: "gaussian"
      std: 0.01
    }
    bias_filler {
      type: "constant"
      value: 1
    }
  }
}
layer {
  name: "relu3"
  type: "ReLU"
  bottom: "conv3"
  top: "conv3"
}
layer {
  name: "conv4"
  type: "Convolution"
  bottom: "conv3"
  top: "conv4"
  param {
    lr_mult: 1
    decay_mult: 1
  }
  param {
    lr_mult: 2
    decay_mult: 0
  }
  convolution_param {
    num_output: 128
    pad: 1
    kernel_size: 3
    stride: 1
    weight_filler {
      type: "gaussian"
      std: 0.01
    }
    bias_filler {
      type: "constant"
      value: 1
    }
  }
}
layer {
  name: "relu4"
  type: "ReLU"
  bottom: "conv4"
  top: "conv4"
}
layer {
  name: "conv5"
  type: "Convolution"
  bottom: "conv4"
  top: "conv5"
  param {
    lr_mult: 1
    decay_mult: 1
  }
  param {
    lr_mult: 2
    decay_mult: 0
  }
  convolution_param {
    num_output: 128
    pad: 1
    kernel_size: 3
    stride: 1
    weight_filler {
      type: "gaussian"
      std: 0.01
    }
    bias_filler {
      type: "constant"
      value: 1
    }
  }
}
layer {
  name: "relu5"
  type: "ReLU"
  bottom: "conv5"
  top: "conv5"
}
layer {
  name: "fc6-conv"
  type: "Convolution"
  bottom: "conv5"
  top: "fc6-conv"
  param {
    lr_mult: 1
    decay_mult: 1
  }
  param {
    lr_mult: 2
    decay_mult: 0
  }
  convolution_param {
    num_output: 4096
    pad: 0
    kernel_size: 9
    stride: 1
  }
}
layer {
  name: "relu6"
  type: "ReLU"
  bottom: "fc6-conv"
  top: "fc6-conv"
}
layer {
  name: "drop6"
  type: "Dropout"
  bottom: "fc6-conv"
  top: "fc6-conv"
  dropout_param {
    dropout_ratio: 0.5
  }
}
layer {
  name: "fc7-conv"
  type: "Convolution"
  bottom: "fc6-conv"
  top: "fc7-conv"
  param {
    lr_mult: 1
    decay_mult: 1
  }
  param {
    lr_mult: 2
    decay_mult: 0
  }
  convolution_param {
    num_output: 4096
    pad: 0
    kernel_size: 1
    stride: 1
  }
}
layer {
  name: "relu7"
  type: "ReLU"
  bottom: "fc7-conv"
  top: "fc7-conv"
}
layer {
  name: "drop7"
  type: "Dropout"
  bottom: "fc7-conv"
  top: "fc7-conv"
  dropout_param {
    dropout_ratio: 0.5
  }
}
layer {
  name: "fc8-conv"
  type: "Convolution"
  bottom: "fc7-conv"
  top: "fc8-conv"
  param {
    lr_mult: 1
    decay_mult: 1
  }
  param {
    lr_mult: 2
    decay_mult: 0
  }
  convolution_param {
    num_output: 9699
    pad: 0
    kernel_size: 1
    stride: 1
  }
}
layer {
  name: "accuracy"
  type: "Accuracy"
  bottom: "fc8-conv"
  bottom: "label"
  top: "accuracy"
  include {
    phase: TEST
  }
}
layer {
  name: "loss"
  type: "SoftmaxWithLoss"
  bottom: "fc8-conv"
  bottom: "label"
  top: "loss"
}
I0407 21:13:15.004596  5433 layer_factory.hpp:74] Creating layer data
I0407 21:13:15.004608  5433 net.cpp:84] Creating Layer data
I0407 21:13:15.004616  5433 net.cpp:338] data -> data
I0407 21:13:15.004626  5433 net.cpp:338] data -> label
I0407 21:13:15.004636  5433 net.cpp:113] Setting up data
I0407 21:13:15.004683  5433 db.cpp:34] Opened lmdb /home/wyang/Data/Code/pose/chen_nips14_full/cache/lsp-03-06/LMDB_val
I0407 21:13:15.004706  5433 data_layer.cpp:67] output data size: 260,3,36,36
I0407 21:13:15.005594  5433 net.cpp:120] Top shape: 260 3 36 36 (1010880)
I0407 21:13:15.005606  5433 net.cpp:120] Top shape: 260 (260)
I0407 21:13:15.005614  5433 layer_factory.hpp:74] Creating layer label_data_1_split
I0407 21:13:15.005621  5433 net.cpp:84] Creating Layer label_data_1_split
I0407 21:13:15.005638  5433 net.cpp:380] label_data_1_split <- label
I0407 21:13:15.005646  5433 net.cpp:338] label_data_1_split -> label_data_1_split_0
I0407 21:13:15.005667  5433 net.cpp:338] label_data_1_split -> label_data_1_split_1
I0407 21:13:15.005683  5433 net.cpp:113] Setting up label_data_1_split
I0407 21:13:15.005693  5433 net.cpp:120] Top shape: 260 (260)
I0407 21:13:15.005703  5433 net.cpp:120] Top shape: 260 (260)
I0407 21:13:15.005709  5433 layer_factory.hpp:74] Creating layer conv1
I0407 21:13:15.005720  5433 net.cpp:84] Creating Layer conv1
I0407 21:13:15.005730  5433 net.cpp:380] conv1 <- data
I0407 21:13:15.005739  5433 net.cpp:338] conv1 -> conv1
I0407 21:13:15.005749  5433 net.cpp:113] Setting up conv1
I0407 21:13:15.005852  5433 net.cpp:120] Top shape: 260 48 36 36 (16174080)
I0407 21:13:15.005870  5433 layer_factory.hpp:74] Creating layer relu1
I0407 21:13:15.005883  5433 net.cpp:84] Creating Layer relu1
I0407 21:13:15.005892  5433 net.cpp:380] relu1 <- conv1
I0407 21:13:15.005899  5433 net.cpp:327] relu1 -> conv1 (in-place)
I0407 21:13:15.005906  5433 net.cpp:113] Setting up relu1
I0407 21:13:15.005915  5433 net.cpp:120] Top shape: 260 48 36 36 (16174080)
I0407 21:13:15.005921  5433 layer_factory.hpp:74] Creating layer pool1
I0407 21:13:15.005929  5433 net.cpp:84] Creating Layer pool1
I0407 21:13:15.005935  5433 net.cpp:380] pool1 <- conv1
I0407 21:13:15.005946  5433 net.cpp:338] pool1 -> pool1
I0407 21:13:15.005959  5433 net.cpp:113] Setting up pool1
I0407 21:13:15.005970  5433 net.cpp:120] Top shape: 260 48 18 18 (4043520)
I0407 21:13:15.005977  5433 layer_factory.hpp:74] Creating layer norm1
I0407 21:13:15.005986  5433 net.cpp:84] Creating Layer norm1
I0407 21:13:15.005991  5433 net.cpp:380] norm1 <- pool1
I0407 21:13:15.006001  5433 net.cpp:338] norm1 -> norm1
I0407 21:13:15.006011  5433 net.cpp:113] Setting up norm1
I0407 21:13:15.006019  5433 net.cpp:120] Top shape: 260 48 18 18 (4043520)
I0407 21:13:15.006026  5433 layer_factory.hpp:74] Creating layer conv2
I0407 21:13:15.006034  5433 net.cpp:84] Creating Layer conv2
I0407 21:13:15.006041  5433 net.cpp:380] conv2 <- norm1
I0407 21:13:15.006052  5433 net.cpp:338] conv2 -> conv2
I0407 21:13:15.006060  5433 net.cpp:113] Setting up conv2
I0407 21:13:15.007354  5433 net.cpp:120] Top shape: 260 128 18 18 (10782720)
I0407 21:13:15.007367  5433 layer_factory.hpp:74] Creating layer relu2
I0407 21:13:15.007377  5433 net.cpp:84] Creating Layer relu2
I0407 21:13:15.007385  5433 net.cpp:380] relu2 <- conv2
I0407 21:13:15.007392  5433 net.cpp:327] relu2 -> conv2 (in-place)
I0407 21:13:15.007403  5433 net.cpp:113] Setting up relu2
I0407 21:13:15.007411  5433 net.cpp:120] Top shape: 260 128 18 18 (10782720)
I0407 21:13:15.007417  5433 layer_factory.hpp:74] Creating layer pool2
I0407 21:13:15.007426  5433 net.cpp:84] Creating Layer pool2
I0407 21:13:15.007433  5433 net.cpp:380] pool2 <- conv2
I0407 21:13:15.007443  5433 net.cpp:338] pool2 -> pool2
I0407 21:13:15.007453  5433 net.cpp:113] Setting up pool2
I0407 21:13:15.007465  5433 net.cpp:120] Top shape: 260 128 9 9 (2695680)
I0407 21:13:15.007473  5433 layer_factory.hpp:74] Creating layer norm2
I0407 21:13:15.007483  5433 net.cpp:84] Creating Layer norm2
I0407 21:13:15.007489  5433 net.cpp:380] norm2 <- pool2
I0407 21:13:15.007499  5433 net.cpp:338] norm2 -> norm2
I0407 21:13:15.007508  5433 net.cpp:113] Setting up norm2
I0407 21:13:15.007516  5433 net.cpp:120] Top shape: 260 128 9 9 (2695680)
I0407 21:13:15.007522  5433 layer_factory.hpp:74] Creating layer conv3
I0407 21:13:15.007531  5433 net.cpp:84] Creating Layer conv3
I0407 21:13:15.007537  5433 net.cpp:380] conv3 <- norm2
I0407 21:13:15.007547  5433 net.cpp:338] conv3 -> conv3
I0407 21:13:15.007556  5433 net.cpp:113] Setting up conv3
I0407 21:13:15.010879  5433 net.cpp:120] Top shape: 260 128 9 9 (2695680)
I0407 21:13:15.010890  5433 layer_factory.hpp:74] Creating layer relu3
I0407 21:13:15.010900  5433 net.cpp:84] Creating Layer relu3
I0407 21:13:15.010905  5433 net.cpp:380] relu3 <- conv3
I0407 21:13:15.010913  5433 net.cpp:327] relu3 -> conv3 (in-place)
I0407 21:13:15.010922  5433 net.cpp:113] Setting up relu3
I0407 21:13:15.010929  5433 net.cpp:120] Top shape: 260 128 9 9 (2695680)
I0407 21:13:15.010944  5433 layer_factory.hpp:74] Creating layer conv4
I0407 21:13:15.010954  5433 net.cpp:84] Creating Layer conv4
I0407 21:13:15.010960  5433 net.cpp:380] conv4 <- conv3
I0407 21:13:15.010970  5433 net.cpp:338] conv4 -> conv4
I0407 21:13:15.010980  5433 net.cpp:113] Setting up conv4
I0407 21:13:15.014305  5433 net.cpp:120] Top shape: 260 128 9 9 (2695680)
I0407 21:13:15.014317  5433 layer_factory.hpp:74] Creating layer relu4
I0407 21:13:15.014325  5433 net.cpp:84] Creating Layer relu4
I0407 21:13:15.014341  5433 net.cpp:380] relu4 <- conv4
I0407 21:13:15.014358  5433 net.cpp:327] relu4 -> conv4 (in-place)
I0407 21:13:15.014366  5433 net.cpp:113] Setting up relu4
I0407 21:13:15.014374  5433 net.cpp:120] Top shape: 260 128 9 9 (2695680)
I0407 21:13:15.014380  5433 layer_factory.hpp:74] Creating layer conv5
I0407 21:13:15.014390  5433 net.cpp:84] Creating Layer conv5
I0407 21:13:15.014406  5433 net.cpp:380] conv5 <- conv4
I0407 21:13:15.014413  5433 net.cpp:338] conv5 -> conv5
I0407 21:13:15.014422  5433 net.cpp:113] Setting up conv5
I0407 21:13:15.017766  5433 net.cpp:120] Top shape: 260 128 9 9 (2695680)
I0407 21:13:15.017791  5433 layer_factory.hpp:74] Creating layer relu5
I0407 21:13:15.017799  5433 net.cpp:84] Creating Layer relu5
I0407 21:13:15.017814  5433 net.cpp:380] relu5 <- conv5
I0407 21:13:15.017822  5433 net.cpp:327] relu5 -> conv5 (in-place)
I0407 21:13:15.017830  5433 net.cpp:113] Setting up relu5
I0407 21:13:15.017838  5433 net.cpp:120] Top shape: 260 128 9 9 (2695680)
I0407 21:13:15.017853  5433 layer_factory.hpp:74] Creating layer fc6-conv
I0407 21:13:15.017865  5433 net.cpp:84] Creating Layer fc6-conv
I0407 21:13:15.017871  5433 net.cpp:380] fc6-conv <- conv5
I0407 21:13:15.017879  5433 net.cpp:338] fc6-conv -> fc6-conv
I0407 21:13:15.017889  5433 net.cpp:113] Setting up fc6-conv
I0407 21:13:15.050678  5433 net.cpp:120] Top shape: 260 4096 1 1 (1064960)
I0407 21:13:15.050706  5433 layer_factory.hpp:74] Creating layer relu6
I0407 21:13:15.050717  5433 net.cpp:84] Creating Layer relu6
I0407 21:13:15.050724  5433 net.cpp:380] relu6 <- fc6-conv
I0407 21:13:15.050731  5433 net.cpp:327] relu6 -> fc6-conv (in-place)
I0407 21:13:15.050750  5433 net.cpp:113] Setting up relu6
I0407 21:13:15.050758  5433 net.cpp:120] Top shape: 260 4096 1 1 (1064960)
I0407 21:13:15.050773  5433 layer_factory.hpp:74] Creating layer drop6
I0407 21:13:15.050783  5433 net.cpp:84] Creating Layer drop6
I0407 21:13:15.050789  5433 net.cpp:380] drop6 <- fc6-conv
I0407 21:13:15.050801  5433 net.cpp:327] drop6 -> fc6-conv (in-place)
I0407 21:13:15.050820  5433 net.cpp:113] Setting up drop6
I0407 21:13:15.050829  5433 net.cpp:120] Top shape: 260 4096 1 1 (1064960)
I0407 21:13:15.050835  5433 layer_factory.hpp:74] Creating layer fc7-conv
I0407 21:13:15.050844  5433 net.cpp:84] Creating Layer fc7-conv
I0407 21:13:15.050849  5433 net.cpp:380] fc7-conv <- fc6-conv
I0407 21:13:15.050859  5433 net.cpp:338] fc7-conv -> fc7-conv
I0407 21:13:15.050869  5433 net.cpp:113] Setting up fc7-conv
I0407 21:13:15.063586  5433 net.cpp:120] Top shape: 260 4096 1 1 (1064960)
I0407 21:13:15.063614  5433 layer_factory.hpp:74] Creating layer relu7
I0407 21:13:15.063624  5433 net.cpp:84] Creating Layer relu7
I0407 21:13:15.063630  5433 net.cpp:380] relu7 <- fc7-conv
I0407 21:13:15.063642  5433 net.cpp:327] relu7 -> fc7-conv (in-place)
I0407 21:13:15.063649  5433 net.cpp:113] Setting up relu7
I0407 21:13:15.063668  5433 net.cpp:120] Top shape: 260 4096 1 1 (1064960)
I0407 21:13:15.063683  5433 layer_factory.hpp:74] Creating layer drop7
I0407 21:13:15.063691  5433 net.cpp:84] Creating Layer drop7
I0407 21:13:15.063698  5433 net.cpp:380] drop7 <- fc7-conv
I0407 21:13:15.063705  5433 net.cpp:327] drop7 -> fc7-conv (in-place)
I0407 21:13:15.063712  5433 net.cpp:113] Setting up drop7
I0407 21:13:15.063722  5433 net.cpp:120] Top shape: 260 4096 1 1 (1064960)
I0407 21:13:15.063737  5433 layer_factory.hpp:74] Creating layer fc8-conv
I0407 21:13:15.063748  5433 net.cpp:84] Creating Layer fc8-conv
I0407 21:13:15.063753  5433 net.cpp:380] fc8-conv <- fc7-conv
I0407 21:13:15.063778  5433 net.cpp:338] fc8-conv -> fc8-conv
I0407 21:13:15.063794  5433 net.cpp:113] Setting up fc8-conv
I0407 21:13:15.094756  5433 net.cpp:120] Top shape: 260 9699 1 1 (2521740)
I0407 21:13:15.094785  5433 layer_factory.hpp:74] Creating layer fc8-conv_fc8-conv_0_split
I0407 21:13:15.094795  5433 net.cpp:84] Creating Layer fc8-conv_fc8-conv_0_split
I0407 21:13:15.094802  5433 net.cpp:380] fc8-conv_fc8-conv_0_split <- fc8-conv
I0407 21:13:15.094810  5433 net.cpp:338] fc8-conv_fc8-conv_0_split -> fc8-conv_fc8-conv_0_split_0
I0407 21:13:15.094836  5433 net.cpp:338] fc8-conv_fc8-conv_0_split -> fc8-conv_fc8-conv_0_split_1
I0407 21:13:15.094856  5433 net.cpp:113] Setting up fc8-conv_fc8-conv_0_split
I0407 21:13:15.094866  5433 net.cpp:120] Top shape: 260 9699 1 1 (2521740)
I0407 21:13:15.094873  5433 net.cpp:120] Top shape: 260 9699 1 1 (2521740)
I0407 21:13:15.094879  5433 layer_factory.hpp:74] Creating layer accuracy
I0407 21:13:15.094892  5433 net.cpp:84] Creating Layer accuracy
I0407 21:13:15.094898  5433 net.cpp:380] accuracy <- fc8-conv_fc8-conv_0_split_0
I0407 21:13:15.094914  5433 net.cpp:380] accuracy <- label_data_1_split_0
I0407 21:13:15.094924  5433 net.cpp:338] accuracy -> accuracy
I0407 21:13:15.094933  5433 net.cpp:113] Setting up accuracy
…
