…
I0408 16:19:57.032857 30789 net.cpp:257] The NetState phase (0) differed from the phase (1) specified by a rule in layer accuracy
I0408 16:19:57.033011 30789 net.cpp:42] Initializing net from parameters: 
name: "TrainValNet"
state {
  phase: TRAIN
}
layer {
  name: "data"
  type: "Data"
  top: "data"
  top: "label"
  include {
    phase: TRAIN
  }
  transform_param {
    mirror: false
    mean_value: 128
    mean_value: 128
    mean_value: 128
  }
  data_param {
    source: "/home/wyang/Data/Code/pose/chen_nips14_full/cache/lsp-03-06/LMDB_train"
    batch_size: 2
    backend: LMDB
  }
}
layer {
  name: "conv1"
  type: "Convolution"
  bottom: "data"
  top: "conv1"
  param {
    lr_mult: 1
    decay_mult: 1
  }
  param {
    lr_mult: 2
    decay_mult: 0
  }
  convolution_param {
    num_output: 48
    pad: 2
    kernel_size: 5
    stride: 1
    weight_filler {
      type: "gaussian"
      std: 0.01
    }
    bias_filler {
      type: "constant"
      value: 0
    }
  }
}
layer {
  name: "relu1"
  type: "ReLU"
  bottom: "conv1"
  top: "conv1"
}
layer {
  name: "pool1"
  type: "Pooling"
  bottom: "conv1"
  top: "pool1"
  pooling_param {
    pool: MAX
    kernel_size: 3
    stride: 2
  }
}
layer {
  name: "norm1"
  type: "LRN"
  bottom: "pool1"
  top: "norm1"
  lrn_param {
    local_size: 5
    alpha: 0.0001
    beta: 0.75
  }
}
layer {
  name: "conv2"
  type: "Convolution"
  bottom: "norm1"
  top: "conv2"
  param {
    lr_mult: 1
    decay_mult: 1
  }
  param {
    lr_mult: 2
    decay_mult: 0
  }
  convolution_param {
    num_output: 128
    pad: 1
    kernel_size: 3
    stride: 1
    weight_filler {
      type: "gaussian"
      std: 0.01
    }
    bias_filler {
      type: "constant"
      value: 1
    }
  }
}
layer {
  name: "relu2"
  type: "ReLU"
  bottom: "conv2"
  top: "conv2"
}
layer {
  name: "pool2"
  type: "Pooling"
  bottom: "conv2"
  top: "pool2"
  pooling_param {
    pool: MAX
    kernel_size: 3
    stride: 2
  }
}
layer {
  name: "norm2"
  type: "LRN"
  bottom: "pool2"
  top: "norm2"
  lrn_param {
    local_size: 5
    alpha: 0.0001
    beta: 0.75
  }
}
layer {
  name: "conv3"
  type: "Convolution"
  bottom: "norm2"
  top: "conv3"
  param {
    lr_mult: 1
    decay_mult: 1
  }
  param {
    lr_mult: 2
    decay_mult: 0
  }
  convolution_param {
    num_output: 128
    pad: 1
    kernel_size: 3
    stride: 1
    weight_filler {
      type: "gaussian"
      std: 0.01
    }
    bias_filler {
      type: "constant"
      value: 1
    }
  }
}
layer {
  name: "relu3"
  type: "ReLU"
  bottom: "conv3"
  top: "conv3"
}
layer {
  name: "conv4"
  type: "Convolution"
  bottom: "conv3"
  top: "conv4"
  param {
    lr_mult: 1
    decay_mult: 1
  }
  param {
    lr_mult: 2
    decay_mult: 0
  }
  convolution_param {
    num_output: 128
    pad: 1
    kernel_size: 3
    stride: 1
    weight_filler {
      type: "gaussian"
      std: 0.01
    }
    bias_filler {
      type: "constant"
      value: 1
    }
  }
}
layer {
  name: "relu4"
  type: "ReLU"
  bottom: "conv4"
  top: "conv4"
}
layer {
  name: "conv5"
  type: "Convolution"
  bottom: "conv4"
  top: "conv5"
  param {
    lr_mult: 1
    decay_mult: 1
  }
  param {
    lr_mult: 2
    decay_mult: 0
  }
  convolution_param {
    num_output: 128
    pad: 1
    kernel_size: 3
    stride: 1
    weight_filler {
      type: "gaussian"
      std: 0.01
    }
    bias_filler {
      type: "constant"
      value: 1
    }
  }
}
layer {
  name: "relu5"
  type: "ReLU"
  bottom: "conv5"
  top: "conv5"
}
layer {
  name: "fc6-conv"
  type: "Convolution"
  bottom: "conv5"
  top: "fc6-conv"
  param {
    lr_mult: 1
    decay_mult: 1
  }
  param {
    lr_mult: 2
    decay_mult: 0
  }
  convolution_param {
    num_output: 4096
    pad: 0
    kernel_size: 9
    stride: 1
  }
}
layer {
  name: "relu6"
  type: "ReLU"
  bottom: "fc6-conv"
  top: "fc6-conv"
}
layer {
  name: "drop6"
  type: "Dropout"
  bottom: "fc6-conv"
  top: "fc6-conv"
  dropout_param {
    dropout_ratio: 0.5
  }
}
layer {
  name: "fc7-conv"
  type: "Convolution"
  bottom: "fc6-conv"
  top: "fc7-conv"
  param {
    lr_mult: 1
    decay_mult: 1
  }
  param {
    lr_mult: 2
    decay_mult: 0
  }
  convolution_param {
    num_output: 4096
    pad: 0
    kernel_size: 1
    stride: 1
  }
}
layer {
  name: "relu7"
  type: "ReLU"
  bottom: "fc7-conv"
  top: "fc7-conv"
}
layer {
  name: "drop7"
  type: "Dropout"
  bottom: "fc7-conv"
  top: "fc7-conv"
  dropout_param {
    dropout_ratio: 0.5
  }
}
layer {
  name: "fc8-conv"
  type: "Convolution"
  bottom: "fc7-conv"
  top: "fc8-conv"
  param {
    lr_mult: 1
    decay_mult: 1
  }
  param {
    lr_mult: 2
    decay_mult: 0
  }
  convolution_param {
    num_output: 9699
    pad: 0
    kernel_size: 1
    stride: 1
  }
}
layer {
  name: "unary"
  type: "Sum"
  bottom: "fc8-conv"
  top: "unary"
  sum_param {
    source: "/home/wyang/Data/Code/iccv/chen-nips14-pose-dev/global_ids.txt"
    mix_num: 13
    parents: 0
    parents: 1
    parents: 2
    parents: 3
    parents: 4
    parents: 5
    parents: 6
    parents: 3
    parents: 8
    parents: 9
    parents: 10
    parents: 11
    parents: 12
    parents: 13
    parents: 2
    parents: 15
    parents: 16
    parents: 17
    parents: 18
    parents: 15
    parents: 20
    parents: 21
    parents: 22
    parents: 23
    parents: 24
    parents: 25
  }
}
layer {
  name: "loss"
  type: "SoftmaxWithLoss"
  bottom: "fc8-conv"
  bottom: "label"
  top: "loss"
}
I0408 16:19:57.033174 30789 layer_factory.hpp:74] Creating layer data
I0408 16:19:57.033197 30789 net.cpp:84] Creating Layer data
I0408 16:19:57.033208 30789 net.cpp:338] data -> data
I0408 16:19:57.033236 30789 net.cpp:338] data -> label
I0408 16:19:57.033251 30789 net.cpp:113] Setting up data
I0408 16:19:57.033324 30789 db.cpp:34] Opened lmdb /home/wyang/Data/Code/pose/chen_nips14_full/cache/lsp-03-06/LMDB_train
I0408 16:19:57.033375 30789 data_layer.cpp:67] output data size: 2,3,36,36
I0408 16:19:57.033454 30789 net.cpp:120] Top shape: 2 3 36 36 (7776)
I0408 16:19:57.033464 30789 net.cpp:120] Top shape: 2 (2)
I0408 16:19:57.033471 30789 layer_factory.hpp:74] Creating layer conv1
I0408 16:19:57.033484 30789 net.cpp:84] Creating Layer conv1
I0408 16:19:57.033507 30789 net.cpp:380] conv1 <- data
I0408 16:19:57.033524 30789 net.cpp:338] conv1 -> conv1
I0408 16:19:57.033535 30789 net.cpp:113] Setting up conv1
I0408 16:19:57.034171 30789 net.cpp:120] Top shape: 2 48 36 36 (124416)
I0408 16:19:57.034188 30789 layer_factory.hpp:74] Creating layer relu1
I0408 16:19:57.034211 30789 net.cpp:84] Creating Layer relu1
I0408 16:19:57.034217 30789 net.cpp:380] relu1 <- conv1
I0408 16:19:57.034224 30789 net.cpp:327] relu1 -> conv1 (in-place)
I0408 16:19:57.034232 30789 net.cpp:113] Setting up relu1
I0408 16:19:57.034251 30789 net.cpp:120] Top shape: 2 48 36 36 (124416)
I0408 16:19:57.034256 30789 layer_factory.hpp:74] Creating layer pool1
I0408 16:19:57.034263 30789 net.cpp:84] Creating Layer pool1
I0408 16:19:57.034279 30789 net.cpp:380] pool1 <- conv1
I0408 16:19:57.034286 30789 net.cpp:338] pool1 -> pool1
I0408 16:19:57.034294 30789 net.cpp:113] Setting up pool1
I0408 16:19:57.034329 30789 net.cpp:120] Top shape: 2 48 18 18 (31104)
I0408 16:19:57.034337 30789 layer_factory.hpp:74] Creating layer norm1
I0408 16:19:57.034349 30789 net.cpp:84] Creating Layer norm1
I0408 16:19:57.034355 30789 net.cpp:380] norm1 <- pool1
I0408 16:19:57.034363 30789 net.cpp:338] norm1 -> norm1
I0408 16:19:57.034373 30789 net.cpp:113] Setting up norm1
I0408 16:19:57.034386 30789 net.cpp:120] Top shape: 2 48 18 18 (31104)
I0408 16:19:57.034404 30789 layer_factory.hpp:74] Creating layer conv2
I0408 16:19:57.034415 30789 net.cpp:84] Creating Layer conv2
I0408 16:19:57.034421 30789 net.cpp:380] conv2 <- norm1
I0408 16:19:57.034431 30789 net.cpp:338] conv2 -> conv2
I0408 16:19:57.034451 30789 net.cpp:113] Setting up conv2
I0408 16:19:57.036228 30789 net.cpp:120] Top shape: 2 128 18 18 (82944)
I0408 16:19:57.036273 30789 layer_factory.hpp:74] Creating layer relu2
I0408 16:19:57.036718 30789 net.cpp:84] Creating Layer relu2
I0408 16:19:57.036736 30789 net.cpp:380] relu2 <- conv2
I0408 16:19:57.036746 30789 net.cpp:327] relu2 -> conv2 (in-place)
I0408 16:19:57.036758 30789 net.cpp:113] Setting up relu2
I0408 16:19:57.036772 30789 net.cpp:120] Top shape: 2 128 18 18 (82944)
I0408 16:19:57.036782 30789 layer_factory.hpp:74] Creating layer pool2
I0408 16:19:57.036798 30789 net.cpp:84] Creating Layer pool2
I0408 16:19:57.036828 30789 net.cpp:380] pool2 <- conv2
I0408 16:19:57.036859 30789 net.cpp:338] pool2 -> pool2
I0408 16:19:57.036871 30789 net.cpp:113] Setting up pool2
I0408 16:19:57.036887 30789 net.cpp:120] Top shape: 2 128 9 9 (20736)
I0408 16:19:57.036895 30789 layer_factory.hpp:74] Creating layer norm2
I0408 16:19:57.036906 30789 net.cpp:84] Creating Layer norm2
I0408 16:19:57.036913 30789 net.cpp:380] norm2 <- pool2
I0408 16:19:57.036923 30789 net.cpp:338] norm2 -> norm2
I0408 16:19:57.036932 30789 net.cpp:113] Setting up norm2
I0408 16:19:57.036942 30789 net.cpp:120] Top shape: 2 128 9 9 (20736)
I0408 16:19:57.036949 30789 layer_factory.hpp:74] Creating layer conv3
I0408 16:19:57.036962 30789 net.cpp:84] Creating Layer conv3
I0408 16:19:57.036970 30789 net.cpp:380] conv3 <- norm2
I0408 16:19:57.036978 30789 net.cpp:338] conv3 -> conv3
I0408 16:19:57.036989 30789 net.cpp:113] Setting up conv3
I0408 16:19:57.041535 30789 net.cpp:120] Top shape: 2 128 9 9 (20736)
I0408 16:19:57.041565 30789 layer_factory.hpp:74] Creating layer relu3
I0408 16:19:57.041578 30789 net.cpp:84] Creating Layer relu3
I0408 16:19:57.041584 30789 net.cpp:380] relu3 <- conv3
I0408 16:19:57.041592 30789 net.cpp:327] relu3 -> conv3 (in-place)
I0408 16:19:57.041611 30789 net.cpp:113] Setting up relu3
I0408 16:19:57.041620 30789 net.cpp:120] Top shape: 2 128 9 9 (20736)
I0408 16:19:57.041625 30789 layer_factory.hpp:74] Creating layer conv4
I0408 16:19:57.041635 30789 net.cpp:84] Creating Layer conv4
I0408 16:19:57.041641 30789 net.cpp:380] conv4 <- conv3
I0408 16:19:57.041656 30789 net.cpp:338] conv4 -> conv4
I0408 16:19:57.041666 30789 net.cpp:113] Setting up conv4
I0408 16:19:57.046852 30789 net.cpp:120] Top shape: 2 128 9 9 (20736)
I0408 16:19:57.046881 30789 layer_factory.hpp:74] Creating layer relu4
I0408 16:19:57.046893 30789 net.cpp:84] Creating Layer relu4
I0408 16:19:57.046900 30789 net.cpp:380] relu4 <- conv4
I0408 16:19:57.046910 30789 net.cpp:327] relu4 -> conv4 (in-place)
I0408 16:19:57.046919 30789 net.cpp:113] Setting up relu4
I0408 16:19:57.046929 30789 net.cpp:120] Top shape: 2 128 9 9 (20736)
I0408 16:19:57.046939 30789 layer_factory.hpp:74] Creating layer conv5
I0408 16:19:57.046978 30789 net.cpp:84] Creating Layer conv5
I0408 16:19:57.046995 30789 net.cpp:380] conv5 <- conv4
I0408 16:19:57.047008 30789 net.cpp:338] conv5 -> conv5
I0408 16:19:57.047025 30789 net.cpp:113] Setting up conv5
I0408 16:19:57.051887 30789 net.cpp:120] Top shape: 2 128 9 9 (20736)
I0408 16:19:57.051924 30789 layer_factory.hpp:74] Creating layer relu5
I0408 16:19:57.051939 30789 net.cpp:84] Creating Layer relu5
I0408 16:19:57.051945 30789 net.cpp:380] relu5 <- conv5
I0408 16:19:57.051964 30789 net.cpp:327] relu5 -> conv5 (in-place)
I0408 16:19:57.051985 30789 net.cpp:113] Setting up relu5
I0408 16:19:57.051993 30789 net.cpp:120] Top shape: 2 128 9 9 (20736)
I0408 16:19:57.052000 30789 layer_factory.hpp:74] Creating layer fc6-conv
I0408 16:19:57.052008 30789 net.cpp:84] Creating Layer fc6-conv
I0408 16:19:57.052017 30789 net.cpp:380] fc6-conv <- conv5
I0408 16:19:57.052026 30789 net.cpp:338] fc6-conv -> fc6-conv
I0408 16:19:57.052034 30789 net.cpp:113] Setting up fc6-conv
I0408 16:19:57.102598 30789 net.cpp:120] Top shape: 2 4096 1 1 (8192)
I0408 16:19:57.102635 30789 layer_factory.hpp:74] Creating layer relu6
I0408 16:19:57.102661 30789 net.cpp:84] Creating Layer relu6
I0408 16:19:57.102701 30789 net.cpp:380] relu6 <- fc6-conv
I0408 16:19:57.102716 30789 net.cpp:327] relu6 -> fc6-conv (in-place)
I0408 16:19:57.102728 30789 net.cpp:113] Setting up relu6
I0408 16:19:57.102738 30789 net.cpp:120] Top shape: 2 4096 1 1 (8192)
I0408 16:19:57.102766 30789 layer_factory.hpp:74] Creating layer drop6
I0408 16:19:57.102782 30789 net.cpp:84] Creating Layer drop6
I0408 16:19:57.102792 30789 net.cpp:380] drop6 <- fc6-conv
I0408 16:19:57.102800 30789 net.cpp:327] drop6 -> fc6-conv (in-place)
I0408 16:19:57.102813 30789 net.cpp:113] Setting up drop6
I0408 16:19:57.102828 30789 net.cpp:120] Top shape: 2 4096 1 1 (8192)
I0408 16:19:57.102835 30789 layer_factory.hpp:74] Creating layer fc7-conv
I0408 16:19:57.102846 30789 net.cpp:84] Creating Layer fc7-conv
I0408 16:19:57.102854 30789 net.cpp:380] fc7-conv <- fc6-conv
I0408 16:19:57.102885 30789 net.cpp:338] fc7-conv -> fc7-conv
I0408 16:19:57.102897 30789 net.cpp:113] Setting up fc7-conv
I0408 16:19:57.117390 30789 net.cpp:120] Top shape: 2 4096 1 1 (8192)
I0408 16:19:57.117425 30789 layer_factory.hpp:74] Creating layer relu7
I0408 16:19:57.117436 30789 net.cpp:84] Creating Layer relu7
I0408 16:19:57.117442 30789 net.cpp:380] relu7 <- fc7-conv
I0408 16:19:57.117449 30789 net.cpp:327] relu7 -> fc7-conv (in-place)
I0408 16:19:57.117455 30789 net.cpp:113] Setting up relu7
I0408 16:19:57.117460 30789 net.cpp:120] Top shape: 2 4096 1 1 (8192)
I0408 16:19:57.117462 30789 layer_factory.hpp:74] Creating layer drop7
I0408 16:19:57.117468 30789 net.cpp:84] Creating Layer drop7
I0408 16:19:57.117472 30789 net.cpp:380] drop7 <- fc7-conv
I0408 16:19:57.117476 30789 net.cpp:327] drop7 -> fc7-conv (in-place)
I0408 16:19:57.117480 30789 net.cpp:113] Setting up drop7
I0408 16:19:57.117491 30789 net.cpp:120] Top shape: 2 4096 1 1 (8192)
I0408 16:19:57.117496 30789 layer_factory.hpp:74] Creating layer fc8-conv
I0408 16:19:57.117508 30789 net.cpp:84] Creating Layer fc8-conv
I0408 16:19:57.117514 30789 net.cpp:380] fc8-conv <- fc7-conv
I0408 16:19:57.117523 30789 net.cpp:338] fc8-conv -> fc8-conv
I0408 16:19:57.117532 30789 net.cpp:113] Setting up fc8-conv
I0408 16:19:57.147987 30789 net.cpp:120] Top shape: 2 9699 1 1 (19398)
I0408 16:19:57.148018 30789 layer_factory.hpp:74] Creating layer fc8-conv_fc8-conv_0_split
I0408 16:19:57.148035 30789 net.cpp:84] Creating Layer fc8-conv_fc8-conv_0_split
I0408 16:19:57.148041 30789 net.cpp:380] fc8-conv_fc8-conv_0_split <- fc8-conv
I0408 16:19:57.148049 30789 net.cpp:338] fc8-conv_fc8-conv_0_split -> fc8-conv_fc8-conv_0_split_0
I0408 16:19:57.148082 30789 net.cpp:338] fc8-conv_fc8-conv_0_split -> fc8-conv_fc8-conv_0_split_1
I0408 16:19:57.148092 30789 net.cpp:113] Setting up fc8-conv_fc8-conv_0_split
I0408 16:19:57.148103 30789 net.cpp:120] Top shape: 2 9699 1 1 (19398)
I0408 16:19:57.148110 30789 net.cpp:120] Top shape: 2 9699 1 1 (19398)
I0408 16:19:57.148116 30789 layer_factory.hpp:74] Creating layer unary
I0408 16:19:57.148128 30789 net.cpp:84] Creating Layer unary
I0408 16:19:57.148143 30789 net.cpp:380] unary <- fc8-conv_fc8-conv_0_split_0
I0408 16:19:57.148150 30789 net.cpp:338] unary -> unary
I0408 16:19:57.148164 30789 net.cpp:113] Setting up unary
I0408 16:19:57.148190 30789 sum_layer.cpp:208] g_cnt: 1
I0408 16:19:57.148197 30789 sum_layer.cpp:208] g_cnt: 2
…
I0408 16:19:58.245771 30789 net.cpp:257] The NetState phase (1) differed from the phase (0) specified by a rule in layer data
I0408 16:19:58.245970 30789 net.cpp:42] Initializing net from parameters: 
name: "TrainValNet"
state {
  phase: TEST
}
layer {
  name: "data"
  type: "Data"
  top: "data"
  top: "label"
  include {
    phase: TEST
  }
  transform_param {
    mirror: false
    mean_value: 128
    mean_value: 128
    mean_value: 128
  }
  data_param {
    source: "/home/wyang/Data/Code/pose/chen_nips14_full/cache/lsp-03-06/LMDB_val"
    batch_size: 260
    backend: LMDB
  }
}
layer {
  name: "conv1"
  type: "Convolution"
  bottom: "data"
  top: "conv1"
  param {
    lr_mult: 1
    decay_mult: 1
  }
  param {
    lr_mult: 2
    decay_mult: 0
  }
  convolution_param {
    num_output: 48
    pad: 2
    kernel_size: 5
    stride: 1
    weight_filler {
      type: "gaussian"
      std: 0.01
    }
    bias_filler {
      type: "constant"
      value: 0
    }
  }
}
layer {
  name: "relu1"
  type: "ReLU"
  bottom: "conv1"
  top: "conv1"
}
layer {
  name: "pool1"
  type: "Pooling"
  bottom: "conv1"
  top: "pool1"
  pooling_param {
    pool: MAX
    kernel_size: 3
    stride: 2
  }
}
layer {
  name: "norm1"
  type: "LRN"
  bottom: "pool1"
  top: "norm1"
  lrn_param {
    local_size: 5
    alpha: 0.0001
    beta: 0.75
  }
}
layer {
  name: "conv2"
  type: "Convolution"
  bottom: "norm1"
  top: "conv2"
  param {
    lr_mult: 1
    decay_mult: 1
  }
  param {
    lr_mult: 2
    decay_mult: 0
  }
  convolution_param {
    num_output: 128
    pad: 1
    kernel_size: 3
    stride: 1
    weight_filler {
      type: "gaussian"
      std: 0.01
    }
    bias_filler {
      type: "constant"
      value: 1
    }
  }
}
layer {
  name: "relu2"
  type: "ReLU"
  bottom: "conv2"
  top: "conv2"
}
layer {
  name: "pool2"
  type: "Pooling"
  bottom: "conv2"
  top: "pool2"
  pooling_param {
    pool: MAX
    kernel_size: 3
    stride: 2
  }
}
layer {
  name: "norm2"
  type: "LRN"
  bottom: "pool2"
  top: "norm2"
  lrn_param {
    local_size: 5
    alpha: 0.0001
    beta: 0.75
  }
}
layer {
  name: "conv3"
  type: "Convolution"
  bottom: "norm2"
  top: "conv3"
  param {
    lr_mult: 1
    decay_mult: 1
  }
  param {
    lr_mult: 2
    decay_mult: 0
  }
  convolution_param {
    num_output: 128
    pad: 1
    kernel_size: 3
    stride: 1
    weight_filler {
      type: "gaussian"
      std: 0.01
    }
    bias_filler {
      type: "constant"
      value: 1
    }
  }
}
layer {
  name: "relu3"
  type: "ReLU"
  bottom: "conv3"
  top: "conv3"
}
layer {
  name: "conv4"
  type: "Convolution"
  bottom: "conv3"
  top: "conv4"
  param {
    lr_mult: 1
    decay_mult: 1
  }
  param {
    lr_mult: 2
    decay_mult: 0
  }
  convolution_param {
    num_output: 128
    pad: 1
    kernel_size: 3
    stride: 1
    weight_filler {
      type: "gaussian"
      std: 0.01
    }
    bias_filler {
      type: "constant"
      value: 1
    }
  }
}
layer {
  name: "relu4"
  type: "ReLU"
  bottom: "conv4"
  top: "conv4"
}
layer {
  name: "conv5"
  type: "Convolution"
  bottom: "conv4"
  top: "conv5"
  param {
    lr_mult: 1
    decay_mult: 1
  }
  param {
    lr_mult: 2
    decay_mult: 0
  }
  convolution_param {
    num_output: 128
    pad: 1
    kernel_size: 3
    stride: 1
    weight_filler {
      type: "gaussian"
      std: 0.01
    }
    bias_filler {
      type: "constant"
      value: 1
    }
  }
}
layer {
  name: "relu5"
  type: "ReLU"
  bottom: "conv5"
  top: "conv5"
}
layer {
  name: "fc6-conv"
  type: "Convolution"
  bottom: "conv5"
  top: "fc6-conv"
  param {
    lr_mult: 1
    decay_mult: 1
  }
  param {
    lr_mult: 2
    decay_mult: 0
  }
  convolution_param {
    num_output: 4096
    pad: 0
    kernel_size: 9
    stride: 1
  }
}
layer {
  name: "relu6"
  type: "ReLU"
  bottom: "fc6-conv"
  top: "fc6-conv"
}
layer {
  name: "drop6"
  type: "Dropout"
  bottom: "fc6-conv"
  top: "fc6-conv"
  dropout_param {
    dropout_ratio: 0.5
  }
}
layer {
  name: "fc7-conv"
  type: "Convolution"
  bottom: "fc6-conv"
  top: "fc7-conv"
  param {
    lr_mult: 1
    decay_mult: 1
  }
  param {
    lr_mult: 2
    decay_mult: 0
  }
  convolution_param {
    num_output: 4096
    pad: 0
    kernel_size: 1
    stride: 1
  }
}
layer {
  name: "relu7"
  type: "ReLU"
  bottom: "fc7-conv"
  top: "fc7-conv"
}
layer {
  name: "drop7"
  type: "Dropout"
  bottom: "fc7-conv"
  top: "fc7-conv"
  dropout_param {
    dropout_ratio: 0.5
  }
}
layer {
  name: "fc8-conv"
  type: "Convolution"
  bottom: "fc7-conv"
  top: "fc8-conv"
  param {
    lr_mult: 1
    decay_mult: 1
  }
  param {
    lr_mult: 2
    decay_mult: 0
  }
  convolution_param {
    num_output: 9699
    pad: 0
    kernel_size: 1
    stride: 1
  }
}
layer {
  name: "unary"
  type: "Sum"
  bottom: "fc8-conv"
  top: "unary"
  sum_param {
    source: "/home/wyang/Data/Code/iccv/chen-nips14-pose-dev/global_ids.txt"
    mix_num: 13
    parents: 0
    parents: 1
    parents: 2
    parents: 3
    parents: 4
    parents: 5
    parents: 6
    parents: 3
    parents: 8
    parents: 9
    parents: 10
    parents: 11
    parents: 12
    parents: 13
    parents: 2
    parents: 15
    parents: 16
    parents: 17
    parents: 18
    parents: 15
    parents: 20
    parents: 21
    parents: 22
    parents: 23
    parents: 24
    parents: 25
  }
}
layer {
  name: "accuracy"
  type: "Accuracy"
  bottom: "fc8-conv"
  bottom: "label"
  top: "accuracy"
  include {
    phase: TEST
  }
}
layer {
  name: "loss"
  type: "SoftmaxWithLoss"
  bottom: "fc8-conv"
  bottom: "label"
  top: "loss"
}
I0408 16:19:58.274546 30789 layer_factory.hpp:74] Creating layer data
I0408 16:19:58.274631 30789 net.cpp:84] Creating Layer data
I0408 16:19:58.274672 30789 net.cpp:338] data -> data
I0408 16:19:58.274732 30789 net.cpp:338] data -> label
I0408 16:19:58.274778 30789 net.cpp:113] Setting up data
I0408 16:19:58.275003 30789 db.cpp:34] Opened lmdb /home/wyang/Data/Code/pose/chen_nips14_full/cache/lsp-03-06/LMDB_val
I0408 16:19:58.275173 30789 data_layer.cpp:67] output data size: 260,3,36,36
I0408 16:19:58.278502 30789 net.cpp:120] Top shape: 260 3 36 36 (1010880)
I0408 16:19:58.278542 30789 net.cpp:120] Top shape: 260 (260)
I0408 16:19:58.278561 30789 layer_factory.hpp:74] Creating layer label_data_1_split
I0408 16:19:58.278637 30789 net.cpp:84] Creating Layer label_data_1_split
I0408 16:19:58.278656 30789 net.cpp:380] label_data_1_split <- label
I0408 16:19:58.278678 30789 net.cpp:338] label_data_1_split -> label_data_1_split_0
I0408 16:19:58.278708 30789 net.cpp:338] label_data_1_split -> label_data_1_split_1
I0408 16:19:58.278749 30789 net.cpp:113] Setting up label_data_1_split
I0408 16:19:58.278774 30789 net.cpp:120] Top shape: 260 (260)
I0408 16:19:58.278828 30789 net.cpp:120] Top shape: 260 (260)
I0408 16:19:58.278844 30789 layer_factory.hpp:74] Creating layer conv1
I0408 16:19:58.278882 30789 net.cpp:84] Creating Layer conv1
I0408 16:19:58.278899 30789 net.cpp:380] conv1 <- data
I0408 16:19:58.278944 30789 net.cpp:338] conv1 -> conv1
I0408 16:19:58.278973 30789 net.cpp:113] Setting up conv1
I0408 16:19:58.279201 30789 net.cpp:120] Top shape: 260 48 36 36 (16174080)
I0408 16:19:58.279220 30789 layer_factory.hpp:74] Creating layer relu1
I0408 16:19:58.279227 30789 net.cpp:84] Creating Layer relu1
I0408 16:19:58.279229 30789 net.cpp:380] relu1 <- conv1
I0408 16:19:58.279233 30789 net.cpp:327] relu1 -> conv1 (in-place)
I0408 16:19:58.279238 30789 net.cpp:113] Setting up relu1
I0408 16:19:58.279252 30789 net.cpp:120] Top shape: 260 48 36 36 (16174080)
I0408 16:19:58.279254 30789 layer_factory.hpp:74] Creating layer pool1
I0408 16:19:58.279259 30789 net.cpp:84] Creating Layer pool1
I0408 16:19:58.279263 30789 net.cpp:380] pool1 <- conv1
I0408 16:19:58.279268 30789 net.cpp:338] pool1 -> pool1
I0408 16:19:58.279273 30789 net.cpp:113] Setting up pool1
I0408 16:19:58.279278 30789 net.cpp:120] Top shape: 260 48 18 18 (4043520)
I0408 16:19:58.279281 30789 layer_factory.hpp:74] Creating layer norm1
I0408 16:19:58.279299 30789 net.cpp:84] Creating Layer norm1
I0408 16:19:58.279302 30789 net.cpp:380] norm1 <- pool1
I0408 16:19:58.279306 30789 net.cpp:338] norm1 -> norm1
I0408 16:19:58.279310 30789 net.cpp:113] Setting up norm1
I0408 16:19:58.279316 30789 net.cpp:120] Top shape: 260 48 18 18 (4043520)
I0408 16:19:58.279320 30789 layer_factory.hpp:74] Creating layer conv2
I0408 16:19:58.279325 30789 net.cpp:84] Creating Layer conv2
I0408 16:19:58.279328 30789 net.cpp:380] conv2 <- norm1
I0408 16:19:58.279332 30789 net.cpp:338] conv2 -> conv2
I0408 16:19:58.279350 30789 net.cpp:113] Setting up conv2
I0408 16:19:58.280580 30789 net.cpp:120] Top shape: 260 128 18 18 (10782720)
I0408 16:19:58.280596 30789 layer_factory.hpp:74] Creating layer relu2
I0408 16:19:58.280601 30789 net.cpp:84] Creating Layer relu2
I0408 16:19:58.280604 30789 net.cpp:380] relu2 <- conv2
I0408 16:19:58.280608 30789 net.cpp:327] relu2 -> conv2 (in-place)
I0408 16:19:58.280612 30789 net.cpp:113] Setting up relu2
I0408 16:19:58.280616 30789 net.cpp:120] Top shape: 260 128 18 18 (10782720)
I0408 16:19:58.280619 30789 layer_factory.hpp:74] Creating layer pool2
I0408 16:19:58.280625 30789 net.cpp:84] Creating Layer pool2
I0408 16:19:58.280628 30789 net.cpp:380] pool2 <- conv2
I0408 16:19:58.280632 30789 net.cpp:338] pool2 -> pool2
I0408 16:19:58.280637 30789 net.cpp:113] Setting up pool2
I0408 16:19:58.280643 30789 net.cpp:120] Top shape: 260 128 9 9 (2695680)
I0408 16:19:58.280647 30789 layer_factory.hpp:74] Creating layer norm2
I0408 16:19:58.280652 30789 net.cpp:84] Creating Layer norm2
I0408 16:19:58.280654 30789 net.cpp:380] norm2 <- pool2
I0408 16:19:58.280658 30789 net.cpp:338] norm2 -> norm2
I0408 16:19:58.280663 30789 net.cpp:113] Setting up norm2
I0408 16:19:58.280668 30789 net.cpp:120] Top shape: 260 128 9 9 (2695680)
I0408 16:19:58.280671 30789 layer_factory.hpp:74] Creating layer conv3
I0408 16:19:58.280676 30789 net.cpp:84] Creating Layer conv3
I0408 16:19:58.280680 30789 net.cpp:380] conv3 <- norm2
I0408 16:19:58.280684 30789 net.cpp:338] conv3 -> conv3
I0408 16:19:58.280689 30789 net.cpp:113] Setting up conv3
I0408 16:19:58.284034 30789 net.cpp:120] Top shape: 260 128 9 9 (2695680)
I0408 16:19:58.284044 30789 layer_factory.hpp:74] Creating layer relu3
I0408 16:19:58.284049 30789 net.cpp:84] Creating Layer relu3
I0408 16:19:58.284051 30789 net.cpp:380] relu3 <- conv3
I0408 16:19:58.284055 30789 net.cpp:327] relu3 -> conv3 (in-place)
I0408 16:19:58.284060 30789 net.cpp:113] Setting up relu3
I0408 16:19:58.284064 30789 net.cpp:120] Top shape: 260 128 9 9 (2695680)
I0408 16:19:58.284066 30789 layer_factory.hpp:74] Creating layer conv4
I0408 16:19:58.284071 30789 net.cpp:84] Creating Layer conv4
I0408 16:19:58.284075 30789 net.cpp:380] conv4 <- conv3
I0408 16:19:58.284080 30789 net.cpp:338] conv4 -> conv4
I0408 16:19:58.284085 30789 net.cpp:113] Setting up conv4
I0408 16:19:58.287319 30789 net.cpp:120] Top shape: 260 128 9 9 (2695680)
I0408 16:19:58.287327 30789 layer_factory.hpp:74] Creating layer relu4
I0408 16:19:58.287330 30789 net.cpp:84] Creating Layer relu4
I0408 16:19:58.287333 30789 net.cpp:380] relu4 <- conv4
I0408 16:19:58.287338 30789 net.cpp:327] relu4 -> conv4 (in-place)
I0408 16:19:58.287343 30789 net.cpp:113] Setting up relu4
I0408 16:19:58.287346 30789 net.cpp:120] Top shape: 260 128 9 9 (2695680)
I0408 16:19:58.287349 30789 layer_factory.hpp:74] Creating layer conv5
I0408 16:19:58.287353 30789 net.cpp:84] Creating Layer conv5
I0408 16:19:58.287356 30789 net.cpp:380] conv5 <- conv4
I0408 16:19:58.287363 30789 net.cpp:338] conv5 -> conv5
I0408 16:19:58.287366 30789 net.cpp:113] Setting up conv5
I0408 16:19:58.290597 30789 net.cpp:120] Top shape: 260 128 9 9 (2695680)
I0408 16:19:58.290606 30789 layer_factory.hpp:74] Creating layer relu5
I0408 16:19:58.290611 30789 net.cpp:84] Creating Layer relu5
I0408 16:19:58.290613 30789 net.cpp:380] relu5 <- conv5
I0408 16:19:58.290617 30789 net.cpp:327] relu5 -> conv5 (in-place)
I0408 16:19:58.290621 30789 net.cpp:113] Setting up relu5
I0408 16:19:58.290627 30789 net.cpp:120] Top shape: 260 128 9 9 (2695680)
I0408 16:19:58.290642 30789 layer_factory.hpp:74] Creating layer fc6-conv
I0408 16:19:58.290647 30789 net.cpp:84] Creating Layer fc6-conv
I0408 16:19:58.290650 30789 net.cpp:380] fc6-conv <- conv5
I0408 16:19:58.290654 30789 net.cpp:338] fc6-conv -> fc6-conv
I0408 16:19:58.290659 30789 net.cpp:113] Setting up fc6-conv
I0408 16:19:58.329737 30789 net.cpp:120] Top shape: 260 4096 1 1 (1064960)
I0408 16:19:58.329771 30789 layer_factory.hpp:74] Creating layer relu6
I0408 16:19:58.329783 30789 net.cpp:84] Creating Layer relu6
I0408 16:19:58.329790 30789 net.cpp:380] relu6 <- fc6-conv
I0408 16:19:58.329818 30789 net.cpp:327] relu6 -> fc6-conv (in-place)
I0408 16:19:58.329828 30789 net.cpp:113] Setting up relu6
I0408 16:19:58.329836 30789 net.cpp:120] Top shape: 260 4096 1 1 (1064960)
I0408 16:19:58.329841 30789 layer_factory.hpp:74] Creating layer drop6
I0408 16:19:58.329850 30789 net.cpp:84] Creating Layer drop6
I0408 16:19:58.329855 30789 net.cpp:380] drop6 <- fc6-conv
I0408 16:19:58.329871 30789 net.cpp:327] drop6 -> fc6-conv (in-place)
I0408 16:19:58.329879 30789 net.cpp:113] Setting up drop6
I0408 16:19:58.329887 30789 net.cpp:120] Top shape: 260 4096 1 1 (1064960)
I0408 16:19:58.329892 30789 layer_factory.hpp:74] Creating layer fc7-conv
I0408 16:19:58.329901 30789 net.cpp:84] Creating Layer fc7-conv
I0408 16:19:58.329906 30789 net.cpp:380] fc7-conv <- fc6-conv
I0408 16:19:58.329916 30789 net.cpp:338] fc7-conv -> fc7-conv
I0408 16:19:58.329924 30789 net.cpp:113] Setting up fc7-conv
I0408 16:19:58.343161 30789 net.cpp:120] Top shape: 260 4096 1 1 (1064960)
I0408 16:19:58.343184 30789 layer_factory.hpp:74] Creating layer relu7
I0408 16:19:58.343194 30789 net.cpp:84] Creating Layer relu7
I0408 16:19:58.343197 30789 net.cpp:380] relu7 <- fc7-conv
I0408 16:19:58.343202 30789 net.cpp:327] relu7 -> fc7-conv (in-place)
I0408 16:19:58.343209 30789 net.cpp:113] Setting up relu7
I0408 16:19:58.343214 30789 net.cpp:120] Top shape: 260 4096 1 1 (1064960)
I0408 16:19:58.343216 30789 layer_factory.hpp:74] Creating layer drop7
I0408 16:19:58.343221 30789 net.cpp:84] Creating Layer drop7
I0408 16:19:58.343225 30789 net.cpp:380] drop7 <- fc7-conv
I0408 16:19:58.343230 30789 net.cpp:327] drop7 -> fc7-conv (in-place)
I0408 16:19:58.343235 30789 net.cpp:113] Setting up drop7
I0408 16:19:58.343240 30789 net.cpp:120] Top shape: 260 4096 1 1 (1064960)
I0408 16:19:58.343242 30789 layer_factory.hpp:74] Creating layer fc8-conv
I0408 16:19:58.343247 30789 net.cpp:84] Creating Layer fc8-conv
I0408 16:19:58.343250 30789 net.cpp:380] fc8-conv <- fc7-conv
I0408 16:19:58.343255 30789 net.cpp:338] fc8-conv -> fc8-conv
I0408 16:19:58.343260 30789 net.cpp:113] Setting up fc8-conv
I0408 16:19:58.373868 30789 net.cpp:120] Top shape: 260 9699 1 1 (2521740)
I0408 16:19:58.373893 30789 layer_factory.hpp:74] Creating layer fc8-conv_fc8-conv_0_split
I0408 16:19:58.373901 30789 net.cpp:84] Creating Layer fc8-conv_fc8-conv_0_split
I0408 16:19:58.373905 30789 net.cpp:380] fc8-conv_fc8-conv_0_split <- fc8-conv
I0408 16:19:58.373913 30789 net.cpp:338] fc8-conv_fc8-conv_0_split -> fc8-conv_fc8-conv_0_split_0
I0408 16:19:58.373921 30789 net.cpp:338] fc8-conv_fc8-conv_0_split -> fc8-conv_fc8-conv_0_split_1
I0408 16:19:58.373927 30789 net.cpp:338] fc8-conv_fc8-conv_0_split -> fc8-conv_fc8-conv_0_split_2
I0408 16:19:58.373931 30789 net.cpp:113] Setting up fc8-conv_fc8-conv_0_split
I0408 16:19:58.373937 30789 net.cpp:120] Top shape: 260 9699 1 1 (2521740)
I0408 16:19:58.373940 30789 net.cpp:120] Top shape: 260 9699 1 1 (2521740)
I0408 16:19:58.373944 30789 net.cpp:120] Top shape: 260 9699 1 1 (2521740)
I0408 16:19:58.373946 30789 layer_factory.hpp:74] Creating layer unary
I0408 16:19:58.373953 30789 net.cpp:84] Creating Layer unary
I0408 16:19:58.373957 30789 net.cpp:380] unary <- fc8-conv_fc8-conv_0_split_0
I0408 16:19:58.373961 30789 net.cpp:338] unary -> unary
I0408 16:19:58.373965 30789 net.cpp:113] Setting up unary
I0408 16:19:58.373971 30789 sum_layer.cpp:208] g_cnt: 1
…
