…
I0827 10:27:16.078482 28582 net.cpp:287] The NetState phase (0) differed from the phase (1) specified by a rule in layer mnist
I0827 10:27:16.078505 28582 net.cpp:287] The NetState phase (0) differed from the phase (1) specified by a rule in layer accuracy
I0827 10:27:16.078583 28582 net.cpp:42] Initializing net from parameters: 
name: "LeNet"
state {
  phase: TRAIN
}
layer {
  name: "mnist"
  type: "Data"
  top: "data"
  top: "label"
  include {
    phase: TRAIN
  }
  transform_param {
    scale: 0.00390625
  }
  data_param {
    source: "examples/mnist/mnist_train_lmdb"
    batch_size: 64
    backend: LMDB
  }
}
layer {
  name: "conv1"
  type: "Convolution"
  bottom: "data"
  top: "conv1"
  param {
    lr_mult: 1
  }
  param {
    lr_mult: 2
  }
  convolution_param {
    num_output: 20
    kernel_size: 5
    stride: 1
    weight_filler {
      type: "xavier"
    }
    bias_filler {
      type: "constant"
    }
  }
}
layer {
  name: "pool1"
  type: "DistancePooling"
  bottom: "conv1"
  top: "pool1"
  pooling_param {
    pool: MAX
    kernel_size: 2
    stride: 2
  }
}
layer {
  name: "conv2"
  type: "Convolution"
  bottom: "pool1"
  top: "conv2"
  param {
    lr_mult: 1
  }
  param {
    lr_mult: 2
  }
  convolution_param {
    num_output: 50
    kernel_size: 5
    stride: 1
    weight_filler {
      type: "xavier"
    }
    bias_filler {
      type: "constant"
    }
  }
}
layer {
  name: "pool2"
  type: "DistancePooling"
  bottom: "conv2"
  top: "pool2"
  pooling_param {
    pool: MAX
    kernel_size: 2
    stride: 2
  }
}
layer {
  name: "ip1"
  type: "InnerProduct"
  bottom: "pool2"
  top: "ip1"
  param {
    lr_mult: 1
  }
  param {
    lr_mult: 2
  }
  inner_product_param {
    num_output: 500
    weight_filler {
      type: "xavier"
    }
    bias_filler {
      type: "constant"
    }
  }
}
layer {
  name: "relu1"
  type: "ReLU"
  bottom: "ip1"
  top: "ip1"
}
layer {
  name: "ip2"
  type: "InnerProduct"
  bottom: "ip1"
  top: "ip2"
  param {
    lr_mult: 1
  }
  param {
    lr_mult: 2
  }
  inner_product_param {
    num_output: 10
    weight_filler {
      type: "xavier"
    }
    bias_filler {
      type: "constant"
    }
  }
}
layer {
  name: "loss"
  type: "HingeLoss"
  bottom: "ip2"
  bottom: "label"
  top: "loss"
}
I0827 10:27:16.078655 28582 layer_factory.hpp:74] Creating layer mnist
I0827 10:27:16.078680 28582 net.cpp:90] Creating Layer mnist
I0827 10:27:16.078697 28582 net.cpp:368] mnist -> data
I0827 10:27:16.078717 28582 net.cpp:368] mnist -> label
I0827 10:27:16.078737 28582 net.cpp:120] Setting up mnist
I0827 10:27:16.078816 28582 db_lmdb.cpp:22] Opened lmdb examples/mnist/mnist_train_lmdb
I0827 10:27:16.078871 28582 data_layer.cpp:52] output data size: 64,1,28,28
I0827 10:27:16.079020 28582 net.cpp:127] Top shape: 64 1 28 28 (50176)
I0827 10:27:16.079026 28582 net.cpp:127] Top shape: 64 (64)
I0827 10:27:16.079042 28582 layer_factory.hpp:74] Creating layer conv1
I0827 10:27:16.079051 28582 net.cpp:90] Creating Layer conv1
I0827 10:27:16.079056 28582 net.cpp:410] conv1 <- data
I0827 10:27:16.079073 28582 net.cpp:368] conv1 -> conv1
I0827 10:27:16.079093 28582 net.cpp:120] Setting up conv1
I0827 10:27:16.117444 28582 net.cpp:127] Top shape: 64 20 24 24 (737280)
I0827 10:27:16.117486 28582 layer_factory.hpp:74] Creating layer pool1
I0827 10:27:16.117496 28582 net.cpp:90] Creating Layer pool1
I0827 10:27:16.117501 28582 net.cpp:410] pool1 <- conv1
I0827 10:27:16.117507 28582 net.cpp:368] pool1 -> pool1
I0827 10:27:16.117530 28582 net.cpp:120] Setting up pool1
I0827 10:27:16.117565 28582 net.cpp:127] Top shape: 64 20 12 12 (184320)
I0827 10:27:16.117588 28582 layer_factory.hpp:74] Creating layer conv2
I0827 10:27:16.117596 28582 net.cpp:90] Creating Layer conv2
I0827 10:27:16.117599 28582 net.cpp:410] conv2 <- pool1
I0827 10:27:16.117604 28582 net.cpp:368] conv2 -> conv2
I0827 10:27:16.117629 28582 net.cpp:120] Setting up conv2
I0827 10:27:16.118008 28582 net.cpp:127] Top shape: 64 50 8 8 (204800)
I0827 10:27:16.118033 28582 layer_factory.hpp:74] Creating layer pool2
I0827 10:27:16.118041 28582 net.cpp:90] Creating Layer pool2
I0827 10:27:16.118043 28582 net.cpp:410] pool2 <- conv2
I0827 10:27:16.118048 28582 net.cpp:368] pool2 -> pool2
I0827 10:27:16.118053 28582 net.cpp:120] Setting up pool2
I0827 10:27:16.118077 28582 net.cpp:127] Top shape: 64 50 4 4 (51200)
I0827 10:27:16.118083 28582 layer_factory.hpp:74] Creating layer ip1
I0827 10:27:16.118094 28582 net.cpp:90] Creating Layer ip1
I0827 10:27:16.118129 28582 net.cpp:410] ip1 <- pool2
I0827 10:27:16.118136 28582 net.cpp:368] ip1 -> ip1
I0827 10:27:16.118161 28582 net.cpp:120] Setting up ip1
I0827 10:27:16.120199 28582 net.cpp:127] Top shape: 64 500 (32000)
I0827 10:27:16.120214 28582 layer_factory.hpp:74] Creating layer relu1
I0827 10:27:16.120223 28582 net.cpp:90] Creating Layer relu1
I0827 10:27:16.120231 28582 net.cpp:410] relu1 <- ip1
I0827 10:27:16.120254 28582 net.cpp:357] relu1 -> ip1 (in-place)
I0827 10:27:16.120260 28582 net.cpp:120] Setting up relu1
I0827 10:27:16.120342 28582 net.cpp:127] Top shape: 64 500 (32000)
I0827 10:27:16.120347 28582 layer_factory.hpp:74] Creating layer ip2
I0827 10:27:16.120353 28582 net.cpp:90] Creating Layer ip2
I0827 10:27:16.120374 28582 net.cpp:410] ip2 <- ip1
I0827 10:27:16.120378 28582 net.cpp:368] ip2 -> ip2
I0827 10:27:16.120384 28582 net.cpp:120] Setting up ip2
I0827 10:27:16.120432 28582 net.cpp:127] Top shape: 64 10 (640)
I0827 10:27:16.120455 28582 layer_factory.hpp:74] Creating layer loss
I0827 10:27:16.120460 28582 net.cpp:90] Creating Layer loss
I0827 10:27:16.120463 28582 net.cpp:410] loss <- ip2
I0827 10:27:16.120466 28582 net.cpp:410] loss <- label
I0827 10:27:16.120488 28582 net.cpp:368] loss -> loss
I0827 10:27:16.120496 28582 net.cpp:120] Setting up loss
I0827 10:27:16.120503 28582 net.cpp:127] Top shape: (1)
…
I0827 10:27:16.120898 28582 solver.cpp:154] Creating test net (#0) specified by net file: examples/mnist/lenet_hinge_loss_train_test.prototxt
I0827 10:27:16.120940 28582 net.cpp:287] The NetState phase (1) differed from the phase (0) specified by a rule in layer mnist
I0827 10:27:16.121060 28582 net.cpp:42] Initializing net from parameters: 
name: "LeNet"
state {
  phase: TEST
}
layer {
  name: "mnist"
  type: "Data"
  top: "data"
  top: "label"
  include {
    phase: TEST
  }
  transform_param {
    scale: 0.00390625
  }
  data_param {
    source: "examples/mnist/mnist_test_lmdb"
    batch_size: 100
    backend: LMDB
  }
}
layer {
  name: "conv1"
  type: "Convolution"
  bottom: "data"
  top: "conv1"
  param {
    lr_mult: 1
  }
  param {
    lr_mult: 2
  }
  convolution_param {
    num_output: 20
    kernel_size: 5
    stride: 1
    weight_filler {
      type: "xavier"
    }
    bias_filler {
      type: "constant"
    }
  }
}
layer {
  name: "pool1"
  type: "DistancePooling"
  bottom: "conv1"
  top: "pool1"
  pooling_param {
    pool: MAX
    kernel_size: 2
    stride: 2
  }
}
layer {
  name: "conv2"
  type: "Convolution"
  bottom: "pool1"
  top: "conv2"
  param {
    lr_mult: 1
  }
  param {
    lr_mult: 2
  }
  convolution_param {
    num_output: 50
    kernel_size: 5
    stride: 1
    weight_filler {
      type: "xavier"
    }
    bias_filler {
      type: "constant"
    }
  }
}
layer {
  name: "pool2"
  type: "DistancePooling"
  bottom: "conv2"
  top: "pool2"
  pooling_param {
    pool: MAX
    kernel_size: 2
    stride: 2
  }
}
layer {
  name: "ip1"
  type: "InnerProduct"
  bottom: "pool2"
  top: "ip1"
  param {
    lr_mult: 1
  }
  param {
    lr_mult: 2
  }
  inner_product_param {
    num_output: 500
    weight_filler {
      type: "xavier"
    }
    bias_filler {
      type: "constant"
    }
  }
}
layer {
  name: "relu1"
  type: "ReLU"
  bottom: "ip1"
  top: "ip1"
}
layer {
  name: "ip2"
  type: "InnerProduct"
  bottom: "ip1"
  top: "ip2"
  param {
    lr_mult: 1
  }
  param {
    lr_mult: 2
  }
  inner_product_param {
    num_output: 10
    weight_filler {
      type: "xavier"
    }
    bias_filler {
      type: "constant"
    }
  }
}
layer {
  name: "accuracy"
  type: "Accuracy"
  bottom: "ip2"
  bottom: "label"
  top: "accuracy"
  include {
    phase: TEST
  }
}
layer {
  name: "loss"
  type: "HingeLoss"
  bottom: "ip2"
  bottom: "label"
  top: "loss"
}
I0827 10:27:16.121158 28582 layer_factory.hpp:74] Creating layer mnist
I0827 10:27:16.121170 28582 net.cpp:90] Creating Layer mnist
I0827 10:27:16.121179 28582 net.cpp:368] mnist -> data
I0827 10:27:16.121201 28582 net.cpp:368] mnist -> label
I0827 10:27:16.121207 28582 net.cpp:120] Setting up mnist
I0827 10:27:16.121275 28582 db_lmdb.cpp:22] Opened lmdb examples/mnist/mnist_test_lmdb
I0827 10:27:16.121309 28582 data_layer.cpp:52] output data size: 100,1,28,28
I0827 10:27:16.121390 28582 net.cpp:127] Top shape: 100 1 28 28 (78400)
I0827 10:27:16.121397 28582 net.cpp:127] Top shape: 100 (100)
I0827 10:27:16.121402 28582 layer_factory.hpp:74] Creating layer label_mnist_1_split
I0827 10:27:16.121407 28582 net.cpp:90] Creating Layer label_mnist_1_split
I0827 10:27:16.121410 28582 net.cpp:410] label_mnist_1_split <- label
I0827 10:27:16.121415 28582 net.cpp:368] label_mnist_1_split -> label_mnist_1_split_0
I0827 10:27:16.121422 28582 net.cpp:368] label_mnist_1_split -> label_mnist_1_split_1
I0827 10:27:16.121425 28582 net.cpp:120] Setting up label_mnist_1_split
I0827 10:27:16.121449 28582 net.cpp:127] Top shape: 100 (100)
I0827 10:27:16.121454 28582 net.cpp:127] Top shape: 100 (100)
I0827 10:27:16.121459 28582 layer_factory.hpp:74] Creating layer conv1
I0827 10:27:16.121469 28582 net.cpp:90] Creating Layer conv1
I0827 10:27:16.121474 28582 net.cpp:410] conv1 <- data
I0827 10:27:16.121487 28582 net.cpp:368] conv1 -> conv1
I0827 10:27:16.121527 28582 net.cpp:120] Setting up conv1
I0827 10:27:16.121793 28582 net.cpp:127] Top shape: 100 20 24 24 (1152000)
I0827 10:27:16.121810 28582 layer_factory.hpp:74] Creating layer pool1
I0827 10:27:16.121824 28582 net.cpp:90] Creating Layer pool1
I0827 10:27:16.121834 28582 net.cpp:410] pool1 <- conv1
I0827 10:27:16.121845 28582 net.cpp:368] pool1 -> pool1
I0827 10:27:16.121855 28582 net.cpp:120] Setting up pool1
I0827 10:27:16.121867 28582 net.cpp:127] Top shape: 100 20 12 12 (288000)
I0827 10:27:16.121873 28582 layer_factory.hpp:74] Creating layer conv2
I0827 10:27:16.121899 28582 net.cpp:90] Creating Layer conv2
I0827 10:27:16.121918 28582 net.cpp:410] conv2 <- pool1
I0827 10:27:16.121927 28582 net.cpp:368] conv2 -> conv2
I0827 10:27:16.121950 28582 net.cpp:120] Setting up conv2
I0827 10:27:16.122340 28582 net.cpp:127] Top shape: 100 50 8 8 (320000)
I0827 10:27:16.122354 28582 layer_factory.hpp:74] Creating layer pool2
I0827 10:27:16.122364 28582 net.cpp:90] Creating Layer pool2
I0827 10:27:16.122375 28582 net.cpp:410] pool2 <- conv2
I0827 10:27:16.122382 28582 net.cpp:368] pool2 -> pool2
I0827 10:27:16.122401 28582 net.cpp:120] Setting up pool2
I0827 10:27:16.122407 28582 net.cpp:127] Top shape: 100 50 4 4 (80000)
I0827 10:27:16.122411 28582 layer_factory.hpp:74] Creating layer ip1
I0827 10:27:16.122416 28582 net.cpp:90] Creating Layer ip1
I0827 10:27:16.122421 28582 net.cpp:410] ip1 <- pool2
I0827 10:27:16.122426 28582 net.cpp:368] ip1 -> ip1
I0827 10:27:16.122431 28582 net.cpp:120] Setting up ip1
I0827 10:27:16.124452 28582 net.cpp:127] Top shape: 100 500 (50000)
I0827 10:27:16.124460 28582 layer_factory.hpp:74] Creating layer relu1
I0827 10:27:16.124466 28582 net.cpp:90] Creating Layer relu1
I0827 10:27:16.124480 28582 net.cpp:410] relu1 <- ip1
I0827 10:27:16.124483 28582 net.cpp:357] relu1 -> ip1 (in-place)
I0827 10:27:16.124488 28582 net.cpp:120] Setting up relu1
I0827 10:27:16.124552 28582 net.cpp:127] Top shape: 100 500 (50000)
I0827 10:27:16.124558 28582 layer_factory.hpp:74] Creating layer ip2
I0827 10:27:16.124564 28582 net.cpp:90] Creating Layer ip2
I0827 10:27:16.124567 28582 net.cpp:410] ip2 <- ip1
I0827 10:27:16.124572 28582 net.cpp:368] ip2 -> ip2
I0827 10:27:16.124577 28582 net.cpp:120] Setting up ip2
I0827 10:27:16.124620 28582 net.cpp:127] Top shape: 100 10 (1000)
I0827 10:27:16.124625 28582 layer_factory.hpp:74] Creating layer ip2_ip2_0_split
I0827 10:27:16.124640 28582 net.cpp:90] Creating Layer ip2_ip2_0_split
I0827 10:27:16.124644 28582 net.cpp:410] ip2_ip2_0_split <- ip2
I0827 10:27:16.124649 28582 net.cpp:368] ip2_ip2_0_split -> ip2_ip2_0_split_0
I0827 10:27:16.124652 28582 net.cpp:368] ip2_ip2_0_split -> ip2_ip2_0_split_1
I0827 10:27:16.124657 28582 net.cpp:120] Setting up ip2_ip2_0_split
I0827 10:27:16.124663 28582 net.cpp:127] Top shape: 100 10 (1000)
I0827 10:27:16.124666 28582 net.cpp:127] Top shape: 100 10 (1000)
I0827 10:27:16.124670 28582 layer_factory.hpp:74] Creating layer accuracy
I0827 10:27:16.124675 28582 net.cpp:90] Creating Layer accuracy
I0827 10:27:16.124687 28582 net.cpp:410] accuracy <- ip2_ip2_0_split_0
I0827 10:27:16.124691 28582 net.cpp:410] accuracy <- label_mnist_1_split_0
I0827 10:27:16.124696 28582 net.cpp:368] accuracy -> accuracy
I0827 10:27:16.124711 28582 net.cpp:120] Setting up accuracy
…
